digit_gen.pth (torch, 998298 bytes, 7 tensors)

label_emb.weight f4 [10, 10]
000000 e7 4c 24 3f fb 9e b2 3f 74 eb 32 c0 6a 17 c5 3f
       0.64179844 1.3954767 -2.795621 1.539777
000010 65 f3 a3 3d 8a 5a ba 3f 57 e5 45 be 13 b8 d1 bf
       0.08005408 1.455888 -0.19325767 -1.63843
000020 82 d8 28 3f 76 7d 2d 3e 5f 52 3d 3f 84 3e a5 3f
       0.65955365 0.16942391 0.73953813 1.2909703
000030 5b ca 91 3f 0a 90 b0 3f ec a6 42 3f 76 83 2b bf
       1.1389879 1.3793957 0.7603595 -0.6699747
000040 72 11 81 3e 7c 3d 09 3f 60 78 f0 3e 58 77 84 bf
       0.25208622 0.5360944 0.4696684 -1.0348921
000050 ce 82 d4 bf 64 d4 b1 3f 52 4f e8 3f d5 08 ee bf
       -1.6602418 1.3892941 1.8149207 -1.8596445
000060 d0 1a 18 bf 98 74 1d 3f 2f 35 98 3e 94 a8 5b bf
       -0.5941591 0.6150603 0.29728076 -0.85804105
000070 44 33 20 3f 2f 6f a7 3e c6 88 76 3f 99 a4 02 c0
       0.62578225 0.32702014 0.9630245 -2.0412962
000080 25 b4 25 bf d0 ae dd 3e e2 cf d5 bf 23 cb 8c 3f
       -0.64728004 0.43297434 -1.6704066 1.0999492
000090 ba 63 fd 3e 30 2d e5 bf 98 e4 d8 3e f3 4d 20 3e
       0.49490148 -1.7904415 0.42361903 0.15654735
0000a0 7c 49 d4 3d 58 3c 1c 3f 20 e8 a2 3f 9f 53 99 bf
       0.103655785 0.6102958 1.2727089 -1.1978644
0000b0 40 7b 03 3e c6 b4 cb 3f f7 42 56 3f 82 67 06 39
       0.12839985 1.5914543 0.8369593 0.00012817796
0000c0 e1 79 fa bf d9 ca 86 bf 03 76 c8 be 7d cc ec 3e
       -1.9568444 -1.0530654 -0.39152536 0.46249762
0000d0 49 13 a4 be 15 b4 45 3e 33 1f 0e bf 5a 9c 95 bf
       -0.32045963 0.19306977 -0.55516356 -1.168834
0000e0 c1 54 8e 3e 8f a0 6e bf 0f a3 65 bf 1a e9 65 bb
       0.27799037 -0.9321374 -0.8970193 -0.0035081566
0000f0 ee e3 e5 bd 96 ab 45 bd 81 de d5 be 4e 1a 27 3f
       -0.11225115 -0.04825934 -0.4177132 0.6527451
000100 ff 02 ba 3f d1 f6 47 3f 77 f2 80 bf 33 2b f2 3e
       1.4532164 0.78110987 -1.0073994 0.47298583
000110 36 23 4d 3e 96 d4 42 bf da 01 af 3e e0 89 7e 3f
       0.20032963 -0.7610563 0.341811 0.9942913
000120 25 dd 52 3f 15 45 81 bf 07 43 07 bf 0b f6 56 3e
       0.8236869 -1.0099207 -0.5283665 0.20992295
000130 a7 c4 ef 3f b8 b9 81 3f 98 68 bf 3f e4 b6 9d 3d
       1.8731889 1.0134802 1.4953794 0.07700899
000140 3a 7f 87 bf 92 b7 4d 3e 74 e4 b2 bd 48 2d d9 3e
       -1.0585701 0.20089558 -0.0873498 0.4241736
000150 19 9a 8f bf 3f 9f 6f 3f 64 67 67 3f 24 41 0a 3f
       -1.1218902 0.93602365 0.90392137 0.54005647
000160 ee 58 f0 3f b9 2b b6 bf 4d 0d e4 3d c9 a8 46 3d
       1.8777139 -1.4232093 0.111353494 0.04850081
000170 7f 95 73 be cd 08 88 3f 18 11 da bf c9 63 5a bf
       -0.23787497 1.0627686 -1.7036467 -0.8530851
000180 0c e1 99 3f bb 4e 03 3f b7 b4 8d 3e 04 76 bb bf
       1.2021804 0.5129201 0.27676937 -1.464539

model.0.weight f4 [128, 110]
000000 12 fe 1d bc 90 db 85 3d 9d 0c 86 3d 43 b5 3c bd
       -0.009643095 0.06536019 0.065453745 -0.046071302
000010 30 7a 1e 3d 70 6d 0b bd 6e 3f 7f 3d 0c 51 85 3d
       0.038690746 -0.034039915 0.06231635 0.06509599
000020 42 96 96 bd 10 f1 4e bd 23 01 3d 3d 97 92 0a bd
       -0.07352878 -0.050522864 0.046143662 -0.033831205
000030 85 5d 25 bd ab fe a4 bd 24 98 ab 3d 1e f1 c5 3c
       -0.04037239 -0.080563866 0.08378628 0.024162825
000040 71 f8 21 bd 3c 78 49 bd 6c 36 b9 bb b6 fa 17 3d
       -0.039543573 -0.04918693 -0.0056522395 0.03710433
000050 fc e3 ff 3a 9c be 3f 3b bb 19 3d bd a7 a5 8a 3d
       0.0019522901 0.00292579 -0.046167117 0.06769877
000060 de d8 ad 3d 70 ea 95 3d 38 0e 78 bd b8 41 29 bb
       0.0848863 0.07320106 -0.060560435 -0.0025826525
000070 d9 72 e1 3b 49 4b 39 bd 20 eb ac 3c 30 0d b3 3c
       0.006880146 -0.045237813 0.02110821 0.021856874
000080 f5 bf c0 3d c6 8a a2 bc e5 9d 34 bd d5 d4 14 3d
       0.09411613 -0.019841563 -0.044095892 0.036335785
000090 ac f7 bd 3a 84 99 b9 3d 72 4d 02 3d b7 df a9 bd
       0.0014493368 0.09062484 0.03181214 -0.08294623
0000a0 88 c3 c5 3a 8a bd f0 3b 7a 36 57 3d 69 71 57 bd
       0.001508818 0.0073468136 0.052542187 -0.05259839
0000b0 8d 6c 80 3d 58 44 f1 3c 13 16 8b 3d b9 fd 54 3d
       0.062707044 0.029451534 0.0679132 0.05199978
0000c0 d3 6a b9 bd ec b0 9e bd 27 a3 86 3d b7 bb bc 3b
       -0.09053578 -0.07748589 0.065740876 0.005759682
0000d0 b4 c0 89 bd 54 ff d2 bd 99 0d 07 3d a5 69 bd 3c
       -0.06726208 -0.10302606 0.032971952 0.023121664
0000e0 5c 7d 92 3d 84 70 92 3b 3e 73 ac 3c 76 8a c1 bd
       0.07152817 0.0044689793 0.021051046 -0.094502375
0000f0 07 b9 9a 3d f1 a1 d0 3c 3a f2 91 bd 6a 74 eb 3c
       0.075548224 0.025467845 -0.07126279 0.028742034
000100 a2 71 d4 3c 0f bf a8 bd 70 f5 a4 3d d9 8d a4 3c
       0.02593309 -0.082395665 0.08054626 0.02008717
000110 f1 5c 0b 3d ee 25 b8 3d fc af 07 3c 00 49 b8 bd
       0.034024183 0.089916095 0.008281704 -0.08998299
000120 0f 76 93 3d 9a 9a bc 3c 4a 15 8c bc c7 3a fd 3b
       0.07200252 0.023022939 -0.017099995 0.007727954
000130 62 5b 34 3d 34 5f 2e 3d fc 35 7e 3c 8e 88 41 3d
       0.044032462 0.04257126 0.015515801 0.04724937
000140 5f 7d 23 3b e7 d8 21 3a 56 c4 ac 3d a5 3c 7e 3c
       0.0024946553 0.00061739836 0.084358856 0.0155173885
000150 04 e8 c5 bd a3 76 4b 3c 48 06 9b bc bd d8 62 bb
       -0.09663394 0.012418422 -0.018923894 -0.003461405
000160 e4 c5 23 3d e7 71 bc 3c 2a e4 6b bd a3 01 6c bd
       0.039983645 0.023003532 -0.05759064 -0.05761875
000170 16 f2 ce bc ed 1c ba 3c fc 1e 03 3a bc 43 33 3c
       -0.02526192 0.022718871 0.00050018704 0.010941442
000180 3e 60 cd bd ef 55 52 3d 02 4c 95 3b c1 e5 53 bd
       -0.10028122 0.051351484 0.00455618 -0.051732782
000190 b8 de b9 bd 8d b5 90 bb fa d3 9a 3d 99 df cb 3d
       -0.09075683 -0.004416174 0.075599626 0.09954757
0001a0 82 f1 1a 3e cd 1e e9 bb 35 5f 02 be a2 76 20 3e
       0.1513119 -0.0071142674 -0.12731631 0.15670255
0001b0 26 9d a7 3c 60 8b 1b be 8b d4 eb bc dd 31 13 3d
       0.020460676 -0.15189886 -0.028787872 0.035936225
0001c0 94 53 97 3d 73 8d 59 bb ea a4 21 b8 81 36 33 bd
       0.07388988 -0.0033195883 -3.853898e-05 -0.04375315
0001d0 0f 3b 4c 3d 70 7e 5a bd 79 1a 11 3d 1c a1 06 3c
       0.04986101 -0.053343236 0.035425637 0.008217122
0001e0 ad 1a b9 3c 14 71 3c 3d c0 97 bb bd db 0e 0b 3d
       0.022595728 0.046006277 -0.091598034 0.033949714
0001f0 46 8f 35 bd 66 8a 91 3d d5 a6 31 3d b5 66 ed 3c
       -0.04432609 0.071064755 0.043371994 0.028979639
000200 06 b3 61 bd c5 c6 b9 bc dd 1d e8 bc d4 b4 3f bd
       -0.05510237 -0.022677789 -0.028334552 -0.04680331
000210 12 78 63 3c 2d 92 27 bd 7d 6e 4b 3d 95 f0 3d bd
       0.013883607 -0.04091089 0.049665917 -0.046372015
000220 a4 ca ca bc df 51 82 3d 4e fe 4d 3c 45 62 0e 3c
       -0.02475483 0.06363272 0.012572838 0.0086904215
000230 38 e1 a8 3c bb c2 69 3d 8b 1f a4 3d f6 6b 49 3d
       0.020615205 0.057070475 0.08013829 0.049175225
000240 22 36 9c bd 67 d0 d5 3c 2c b6 0e 3d 2f 65 51 3d
       -0.076275125 0.02610035 0.0348417 0.051121887
000250 22 0b 9e 3d cb 4f 75 bc f7 94 b8 3c 2e 54 61 3c
       0.07716967 -0.014972637 0.02253197 0.01375298
000260 2e 34 2b 3d 10 ad 8b 3d 91 1a 34 bd 90 e4 31 3d
       0.04179781 0.068201184 -0.04397065 0.043430865
000270 19 19 3a 3d e3 82 ac bd 18 7d 81 3d 1f e3 2b 3d
       0.04543409 -0.08423402 0.06322688 0.041964646
000280 af 3c a2 bc cc 8d 19 3c b2 b0 4e 3d 05 46 72 bd
       -0.019804327 0.009372186 0.05046148 -0.059148807
000290 5c 55 08 3d 1e ee a5 bd c8 5c fb 3c 06 bc 6e 3d
       0.03328453 -0.08102058 0.03068389 0.058284782
0002a0 ad aa 14 3d 86 4c 24 3c 1f 89 19 bc 8f 6d 36 bc
       0.03629558 0.01002801 -0.009371071 -0.011134519
0002b0 21 c7 e3 bb c6 b7 21 bd a4 81 22 3d cf 47 44 bd
       -0.0069512282 -0.0394819 0.039674416 -0.047920045
0002c0 dc 21 58 bd 2f ee b5 bd 6d 66 05 3c ce 5e 92 3d
       -0.052766666 -0.088833205 0.008142096 0.07146989
0002d0 28 43 2d 3b 25 8c 03 bd 58 d2 ca 3c 2f ed 7c 3d
       0.0026437733 -0.032116074 0.024758503 0.061749633
0002e0 08 54 62 bc 08 1d 92 bd 14 54 24 ba 26 f0 b2 3b
       -0.01381398 -0.071344435 -0.0006268632 0.005460757
0002f0 c5 5c c5 bc 40 6c e6 bc 54 b5 4e bc 69 86 5b bc
       -0.024092088 -0.02812779 -0.012616474 -0.013398745
000300 74 05 21 3d 3f d5 db bc 92 a9 e2 39 7c 7e 27 3d
       0.03931184 -0.026835082 0.0004323242 0.04089211
000310 1c 07 bd bc 45 af a7 bd 96 c0 a0 3c 3a 65 f4 bb
       -0.02307468 -0.08187727 0.019623082 -0.007458356
000320 bf 1a 07 bc 04 d8 aa bd 51 dd b1 3c ab bb 67 3d
       -0.008246123 -0.08341983 0.021711977 0.05657546
000330 91 f6 7f bd 02 9b cd 3d c4 19 af bd ed 48 9e 3d
       -0.062491003 0.10039331 -0.08549836 0.07728753
000340 1c 3b c9 bc 6d c9 d2 bb 19 82 8a 3c b2 48 23 3e
       -0.024564318 -0.006432703 0.016907739 0.159457
000350 25 b1 4c 3e ed c5 f8 3d c8 83 04 bd 54 17 d4 bd
       0.1998945 0.12147126 -0.03235224 -0.10356012
000360 a6 22 ef 3b 9d 8e 1e 3e d1 58 c5 3d 0e 0a 85 3d
       0.0072978316 0.1548409 0.09636081 0.064960584
000370 92 c2 ec bc ed 79 a7 3d 9d 80 4a bd 8f 5b c6 bc
       -0.028901372 0.08177552 -0.04943906 -0.02421358
000380 74 aa 06 3c 69 19 05 3d 94 52 aa 3d 89 35 ba 3d
       0.00821935 0.032494936 0.08316532 0.09092242
000390 ac 0a b8 bd 3d 19 be 3d 7e e6 0a 3b 1e 25 a9 bd
       -0.089864105 0.092821576 0.0021194513 -0.08259033
0003a0 6a 0c ad 3d bc 37 88 3d 04 b2 95 bc 94 bd 94 bd
       0.084496334 0.066512555 -0.018273361 -0.07262722
0003b0 65 d8 a5 bc 8a 0b c7 3d 45 0a 9f 3d b1 10 bc 3d
       -0.020244787 0.09718998 0.07765631 0.09182871
0003c0 b5 a2 b2 3d 54 6a 81 bd dc b0 97 3d 6c 03 c2 bc
       0.0872244 -0.063191086 0.0740678 -0.023683272
0003d0 18 b2 1d 3c 8f 8a f1 3b ff 36 b2 bc fb d4 ab bd
       0.00962498 0.007371254 -0.02175474 -0.08390232
0003e0 77 d9 64 bd 9c 6f 07 3d 46 55 26 bc 63 71 80 3d
       -0.055871453 0.033065423 -0.010152167 0.06271627
0003f0 07 dd cf bd 55 a3 d3 bc f5 b1 36 bd 85 49 77 3d
       -0.101495795 -0.025834719 -0.044603307 0.060372848

model.0.bias f4 [128]
000000 8c 6b 78 bc d3 e0 cd 3d 05 e8 66 3d d1 19 0d 3c
       -0.01516236 0.100526474 0.056373615 0.008612112
000010 91 ab e5 3d b6 06 b4 3c f1 83 ec 3d 05 8a 57 3d
       0.11214364 0.021975856 0.11548603 0.05262186
000020 40 3a dd 3d 13 e0 18 3d 53 45 4c 3d be 93 ee 3d
       0.10802126 0.03732307 0.0498708 0.11649273
000030 2a 22 c9 3d bf d4 26 bd f6 71 3d bd 21 ce a3 3d
       0.098209694 -0.040730234 -0.04625126 0.079983
000040 e3 65 38 3d 3f 32 84 3c 41 eb 45 bd 24 80 e0 3d
       0.04501904 0.01613724 -0.04832006 0.10961941
000050 5e bc cf 3d 49 a5 90 3c 2a 5b b5 3d 73 75 54 3d
       0.1014335 0.01765694 0.08855279 0.05186982
000060 df bc 4a bd 42 00 fc 3d 5f 6f 24 bb 60 2b 9f 3d
       -0.049496528 0.12304737 -0.0025090796 0.07771945
000070 37 ed c5 3c 88 cf 72 3d e5 1e 05 3d 73 b4 7a 3c
       0.024160964 0.05927995 0.032500166 0.0153018115
000080 61 d8 f6 3c 6b 51 07 bd f9 b9 c4 3c 46 fd 0d 3e
       0.030132474 -0.03303663 0.02401446 0.13866147
000090 c5 e0 3a 3d 58 b7 55 bd 23 bd 57 3d e8 8e 06 bd
       0.045624513 -0.052176803 0.05267061 -0.03285113
0000a0 1c 2f ca 3c 2d e8 7a bc d9 3d ea 3d 0a f4 dd 3d
       0.024680667 -0.015314144 0.11437578 0.108375624
0000b0 a2 4a 2b bd a6 12 33 bc dc 25 80 3c 37 af 92 3c
       -0.041819222 -0.010929739 0.015643053 0.017905815
0000c0 9d fd eb 3b 44 e1 cc 3c 18 92 90 3d 49 58 ff bc
       0.007201864 0.025009759 0.07059115 -0.031170027
0000d0 d6 4a 96 3d c5 dc 0a bd b7 6c 0b 3d ba 8c e5 bc
       0.073384926 -0.03390195 0.034039225 -0.028021205
0000e0 72 55 1c 3d 0d 1b 46 3d 2b e4 54 bd aa e9 30 3d
       0.038167424 0.04836564 -0.05197541 0.04319159
0000f0 0b eb 92 bd 8f e5 27 3d 86 86 75 3c 55 a4 bd bc
       -0.07173737 0.04099041 0.014985686 -0.023149649
000100 6e 93 9d 3d 51 5e 28 3d 9e 5b 79 3d 12 27 ff 3c
       0.076941356 0.041105572 0.06087839 0.03114656
000110 26 c0 11 3d 49 40 3f bd a5 3c be 3d 11 da 92 bd
       0.035583638 -0.046692166 0.09288911 -0.07170499
000120 d0 ba 1b 3d 3f b3 16 bd 0f 66 4f bd c2 eb 51 3d
       0.038019955 -0.036792036 -0.05063444 0.051250227
000130 fc ee 37 bc 04 6e e0 3d 0c 62 c5 3c 8b 53 3e 3d
       -0.011226412 0.10958484 0.024094604 0.04646639
000140 39 ca fd 3c 40 c6 72 3d b0 5b 00 3d bb f3 ec 3d
       0.030980216 0.059271097 0.03133744 0.115699254
000150 89 91 f6 3c 24 e3 65 3d 83 6f 84 bd f3 51 7e 3c
       0.030098693 0.05612482 -0.06466582 0.015522468
000160 46 5d 0a bc df 5c d9 3d 2c 14 7e 3c d0 8e 5c 3c
       -0.00844509 0.10613417 0.015507739 0.0134617835
000170 67 77 b1 3d 3e 7c 0f bd e9 f1 90 3d 25 26 a9 bc
       0.08665352 -0.035030596 0.07077391 -0.020648072
000180 eb 3c b7 3d 2a b8 82 bd 71 f8 85 3d 6a 7b b3 bc
       0.08947166 -0.06382783 0.06541527 -0.021909434
000190 f2 9f 97 3d f0 58 71 bd c0 d7 16 3d db 8d 4a bb
       0.07403554 -0.058922708 0.03682685 -0.0030907306
0001a0 a7 d2 c4 3d 59 4d 99 3d 94 d5 95 3d d2 46 89 3d
       0.09610491 0.07485456 0.073161274 0.06702961
0001b0 85 04 85 bd b4 76 48 bd ab 58 aa bc ae 12 19 3c
       -0.06495003 -0.04894133 -0.020794233 0.0093428325
0001c0 48 d5 1f 3d bf bc 94 bc ec 9b 89 bd 0a e7 f2 3d
       0.03902176 -0.018156407 -0.06719193 0.118604735
0001d0 7b ae ac bc 9c ef cb 3c 50 66 bc 3c c3 89 ef 3d
       -0.021079293 0.024894528 0.022998005 0.11696198
0001e0 92 ac 80 3d 34 5d 87 3d f2 cb 42 3d f6 7f c2 3d
       0.06282915 0.06609574 0.04755778 0.09497063
0001f0 50 21 8b bd 55 5e 01 3c 98 30 97 3d 8d 5a ab 3d
       -0.06793463 0.007896026 0.073823154 0.083668806

model.2.weight f4 [256, 128]
000000 22 89 2c bd 42 54 98 3c 2c b8 35 bd 6b 83 ab 3a
       -0.042122968 0.018594865 -0.044365093 0.001308543
000010 68 bc 10 3d bf b5 1e bd e4 9c 55 bd f1 bf 97 3d
       0.03533593 -0.038747545 -0.052151576 0.07409657
000020 a2 ba 84 3d b8 b4 ec 3c 08 78 29 bd 10 50 cf 3d
       0.0648091 0.028894767 -0.041374236 0.101226926
000030 c4 37 8a 3d 2b ad 8b 3d 7d b7 ba 3d 6a 3a ab 3d
       0.06748918 0.068201385 0.09117029 0.08360751
000040 b9 75 6d bd a3 57 aa 3d b8 e7 ab 3d 00 2e b6 3d
       -0.057973597 0.08317497 0.08393806 0.088954926
000050 f2 76 56 bd ff e2 7d 3d 86 3c ab 3c eb 8a b5 3c
       -0.05235953 0.06198406 0.020902883 0.022160968
000060 04 92 f7 3b e2 af 6e bd d5 3a 88 bc f9 bc 81 bc
       0.007555248 -0.058273204 -0.016629616 -0.01583718
000070 29 5e df 3d 85 b9 22 bd 9e 50 cb 3d f6 24 9c 3d
       0.109066315 -0.039727706 0.09927486 0.07624237
000080 ea ae 89 3d 22 41 28 bd 34 ba 6e bd 7c e3 0b 3d
       0.06722815 -0.04107774 -0.058283046 0.034152493
000090 2b 65 2e 3d f5 d9 2f 3c 6d d6 0b 3c 4c 0d 6d bd
       0.04257695 0.010733117 0.00853501 -0.05787401
0000a0 fe cd b7 3d ce e4 e1 3c 57 43 cf 3d 57 5c d7 3d
       0.08974837 0.027574923 0.10120266 0.10515659
0000b0 b8 0c 6e bd ae fc dc bc 65 47 9c 3d 21 a8 65 bd
       -0.0581176 -0.026975956 0.07630805 -0.056068543
0000c0 4e 4d 40 3d b2 dd f7 3c 5b fb c4 3d 3d d2 c4 3d
       0.046948723 0.03025708 0.09618255 0.09610412
0000d0 3c 24 ba 3b d4 22 e8 3c d8 43 f0 3c 2a 5d c2 3d
       0.005680589 0.02833692 0.029329225 0.09490426
0000e0 39 57 53 bd 5c 4a 28 3c 3d 6f 6d bd a3 87 1f bd
       -0.051596854 0.010271635 -0.057967413 -0.038947713
0000f0 51 ec a7 3d 2c d0 fd bc 3b 70 16 bd ef f7 15 bd
       0.08199371 -0.030983053 -0.036728125 -0.0366134
000100 d4 74 e3 3d 75 53 43 bd cc 87 1a bd 7e 49 43 bd
       0.111062676 -0.047687013 -0.037727162 -0.04767751
000110 01 f3 ef bc b7 35 52 bd a5 ff 1d 3d 8b 13 49 3d
       -0.029290678 -0.051320758 0.03857388 0.049090903
000120 5d 3a 8b bc 06 c3 80 3d 98 7f 28 bd 83 63 7c bd
       -0.016995603 0.06287198 -0.041137308 -0.06161834
000130 88 dd 92 3d 7f ff 34 3c 67 bc a7 3c 8a 9a 96 3d
       0.0717116 0.011047243 0.02047558 0.07353695
000140 92 9c c1 3d de ac a3 bd 19 14 d4 bc f9 d1 c7 3d
       0.094536915 -0.07991956 -0.02588849 0.09756846
000150 d7 f3 93 3d 9c a2 59 bd 0b e8 23 3d 77 9f 68 3d
       0.07224243 -0.053133592 0.040016215 0.056792703
000160 83 86 87 3c e9 67 40 bd 6b 4d 79 bd 52 ce 0b 3d
       0.016543632 -0.046974096 -0.060864847 0.03413231
000170 75 a1 38 bd 76 3e 7f bd ef 9c 59 bd a0 03 8e 3d
       -0.045075852 -0.062315427 -0.05312818 0.06934285
000180 21 d2 e3 bc 06 1f ae bc 09 f5 8b 3d e4 29 17 bd
       -0.027810158 -0.021255028 0.06833846 -0.036905184
000190 5a d0 5d bd 3e d3 84 3d 88 11 2c bd b1 f5 6e bd
       -0.054153778 0.06485604 -0.042008907 -0.05833978
0001a0 2b 9f 1a 3c 44 79 9b 3d 00 a3 d8 bc 36 56 d2 bc
       0.009437363 0.07591489 -0.026444912 -0.025675874
0001b0 a9 1c c1 3d be 04 45 bd dc 1a 42 bd 68 5f bb bb
       0.094292946 -0.048100226 -0.047388896 -0.0057181604
0001c0 b5 5a 2e 3c 47 5a e4 3c 84 9d e5 3c ca 1a fb bc
       0.010641743 0.027875079 0.02802921 -0.030652422
0001d0 ad a1 b4 3c c5 a3 da bc 6c 8f 82 bd 47 38 9a 3d
       0.02204975 -0.02668942 -0.06375012 0.07530265
0001e0 4b f2 57 bd 90 34 af 3c 81 98 0b bd 4c 62 ae 3d
       -0.052721303 0.021387368 -0.034080986 0.085148424
0001f0 7b b2 0d bd f5 35 6e bb bc ce ef bb 01 38 82 3d
       -0.03459404 -0.003634808 -0.007318346 0.06358338
000200 03 8f 47 3c 12 5a 9c 3d d2 58 87 3c 8a 73 91 3c
       0.012180093 0.07634367 0.016521845 0.017755289
000210 0d ba 99 3d be 94 b9 3c 97 f8 33 bd b8 98 29 3d
       0.075061895 0.022653934 -0.043938246 0.04140541
000220 37 cf c6 3d 6d a4 e7 bb c8 97 96 bd a8 12 c1 3d
       0.09707492 -0.0070691616 -0.07353169 0.094273865
000230 c9 67 b8 3d d2 06 0b bd 27 84 a3 3d a0 e6 b2 3c
       0.090041704 -0.03394205 0.079841904 0.021838486
000240 bc dc 80 bc 76 f1 bf 3d b2 3c b5 3d e4 dc 49 bb
       -0.015730254 0.09372227 0.08849467 -0.0030801827
000250 f4 01 c5 3d c4 ba 19 bc 33 17 6b 3d fc 64 b7 3d
       0.09619513 -0.009382907 0.05739517 0.08954808
000260 71 a6 c3 3d 10 ff b5 3d 44 d4 80 bb a5 7c 7f 3d
       0.095532306 0.0888654 -0.003931554 0.06237473
000270 a4 86 45 3d 87 93 9a 3d e2 39 6d 3d 01 72 29 bd
       0.048224106 0.0754767 0.05791653 -0.04136849
000280 4c ca e2 3c a3 8b a2 3c d9 11 41 3b 5b dd cc 3d
       0.027684353 0.019841975 0.00294601 0.10003158
000290 07 f6 1b 3c 5a 1c 41 3c 5a b8 93 bc 9c 2f 81 bd
       0.009519107 0.011786545 -0.018032242 -0.06307909
0002a0 c9 2d be b9 98 08 d2 bc 76 e9 4c bd 42 e1 0d bd
       -0.00036273737 -0.025638863 -0.050027333 -0.03463865
0002b0 36 fe ad 3d b1 45 44 3d 47 74 68 bc 37 e7 83 3d
       0.084957525 0.047918025 -0.014187879 0.06440585
0002c0 f3 9d 76 bd 1c e8 4c 3c 4a e9 bf 3d 0d 3d 19 3d
       -0.060209226 0.012506511 0.09370668 0.03741174
0002d0 45 ad 23 bc fe 78 8d 3d 60 96 02 bd d8 44 c2 bc
       -0.009990041 0.06907843 -0.03188169 -0.023714468
0002e0 79 12 a6 bc 17 e8 d1 bc 43 f2 de bc be e1 8c bb
       -0.02027248 -0.025623364 -0.027215129 -0.0042993715
0002f0 0a 3e db 3c 5d 05 a8 bb 6e de 4a bd 19 e1 8b 3b
       0.026762981 -0.0051275925 -0.04952853 0.004268777
000300 40 66 4b 3d 49 80 39 bd c4 4d ee 3c 0f 3e af 3d
       0.04965806 -0.045288358 0.029089816 0.085567586
000310 fb 9e 84 bc 9b 74 b4 bb 28 d1 a9 3c 0d 3d c1 3c
       -0.016189089 -0.0055070645 0.020729616 0.023588682
000320 ff 01 42 bd 3d 75 3d bd 85 e3 d3 3d 7e fe a7 3d
       -0.047365185 -0.046254385 0.1034613 0.082028374
000330 55 0e 04 3d 37 5a 92 bb 57 be 46 bd 89 fe 95 3d
       0.03224023 -0.004466321 -0.048521366 0.07323939
000340 18 a7 40 bd 29 d6 5c 3d f4 9c 63 bd ae a3 96 3d
       -0.047034353 0.053915177 -0.055569604 0.07355438
000350 ae 5c af 3d 8d 89 b9 3d db ef 5d 3d e0 78 2b bd
       0.08562599 0.09059439 0.054183822 -0.041863322
000360 cc c4 f8 3c 7d 32 b4 3d 20 db d3 3d c1 88 4f bd
       0.030367278 0.087986924 0.10344529 -0.050667528
000370 e3 a5 33 3d 1a 0c 72 3c 96 62 29 3d 06 19 55 3d
       0.043859374 0.014773393 0.041353785 0.052025817
000380 6a 3b a2 3c 48 69 b3 3d 03 e0 3f bd cd 37 11 3d
       0.019803721 0.08760315 -0.046844494 0.035453606
000390 33 a1 5b ba e3 24 5c 3d ab 2b c8 3d 21 d4 cf 3c
       -0.00083782076 0.053746115 0.09773954 0.025369706
0003a0 41 dd 89 bd 2f 6d 50 bd de 0b ab 3d 98 89 ba 3d
       -0.06731654 -0.050885376 0.08351873 0.09108275
0003b0 05 da 61 3d 47 93 87 3d ac 91 49 3b 37 0b 96 bd
       0.05513956 0.06619888 0.0030756993 -0.07326358
0003c0 65 f7 0e 3d f2 95 62 3d b0 29 98 bc a9 6a 3f 3d
       0.034903903 0.05531878 -0.018574566 0.04673258
0003d0 48 7c d1 3d 07 7e a9 3c 12 f6 ab 3d 3e 27 b3 bc
       0.10228783 0.020689977 0.083965436 -0.021869298
0003e0 1d b0 7f 3d 8a d8 c7 3d 5d 17 4d bd f9 36 86 3d
       0.062423814 0.097580984 -0.05007111 0.06553454
0003f0 b8 45 a3 3d 30 52 d2 bc cb 84 a5 3d 4e 00 20 3d
       0.07972282 -0.025673956 0.08081969 0.03906279

model.2.bias f4 [256]
000000 4c 10 bc bc 6c 23 df 3c 84 81 8b 3d 57 92 e9 3c
       -0.02295699 0.02723857 0.068118125 0.028512163
000010 d4 cd da 3d 01 b2 43 bd 57 59 90 3c 12 31 b0 3d
       0.1068379 -0.04777718 0.017620726 0.086031094
000020 2f d2 45 3d c5 9b a0 3d b5 45 b5 3b 7f f4 98 bd
       0.04829615 0.07842211 0.0055319914 -0.07468509
000030 61 69 3a bd a4 e2 4f bd 01 d4 fe 3c 27 23 5f bc
       -0.045510653 -0.05075325 0.03110695 -0.013619221
000040 63 b7 07 3d 7b d2 7b bd 45 0a 58 bd cb e3 29 3c
       0.033133876 -0.061480027 -0.05274417 0.0103692515
000050 28 6d 0c bd f5 d1 86 bc f1 1b 31 3d c7 a9 0d bd
       -0.034283787 -0.016457537 0.043239538 -0.03458574
000060 44 6c 1b 3d 6f 1e 71 bc 18 c7 d4 3c 13 92 43 bd
       0.037945047 -0.014716729 0.025973842 -0.04774673
000070 74 c0 dc bc 11 bd 34 3d b7 86 c2 3d fd 47 6e 3d
       -0.026947238 0.04412562 0.09498351 0.058174122
000080 3a d4 cc 3d ce dd c4 3d 2f eb 67 3d 4e 89 2c 3d
       0.100014165 0.096126184 0.056620773 0.04212313
000090 a8 f3 88 bb 3f c2 37 bd a7 74 a2 3c 8e f7 35 3d
       -0.0041794367 -0.044862982 0.019831015 0.04442554
0000a0 6b 05 44 3d b6 06 8d bc 8f 9c 1d 3d 31 85 cd 3d
       0.04785673 -0.017215114 0.038479384 0.1003517
0000b0 f8 62 65 3c 12 0d 59 3d 0c f3 fa bc 8c 1a a3 bd
       0.014000647 0.05299098 -0.030633472 -0.07964048
0000c0 69 27 9b 3d 83 e0 38 bd 5b 2b 5b 3d a4 6b 8b 3d
       0.07575876 -0.045135986 0.053508144 0.0680764
0000d0 cf c4 30 bd bd 52 bc ba db a8 70 bd 0e 19 64 bd
       -0.04315644 -0.001436792 -0.058754783 -0.055687957
0000e0 e6 5d 8a 3d d3 f8 f1 bc a6 e0 93 3c 39 ec 96 3d
       0.06756191 -0.029537594 0.018051457 0.07369275
0000f0 38 b0 5c bd 8f d3 63 3c a8 a8 5d bd 8d 81 02 bc
       -0.053878993 0.01390542 -0.05411592 -0.007965458
000100 92 15 89 3c 6a fe be 3d 84 4e 16 bd b8 3c 08 bd
       0.016733918 0.093258694 -0.036695972 -0.03326103
000110 dd c1 b1 bc b3 10 5f 3d be 5f b8 39 69 d3 93 3d
       -0.021698887 0.054459285 0.00035166548 0.07218058
000120 fc f1 9b bc 5d 25 73 bd 11 9a 07 3d 7b f4 c1 3d
       -0.019036286 -0.059361804 0.033105914 0.09470459
000130 2f 33 a6 ba e1 b8 d9 3c b5 15 c1 3d ae 9c 52 bd
       -0.0012680049 0.026577415 0.094279684 -0.051418953
000140 54 22 b2 3c c1 60 ad 3d 0b d6 a1 3d 4f 9e a3 3c
       0.021744885 0.0846572 0.079021536 0.019972948
000150 ae db 41 bd d2 98 11 bc 4c 60 4e bd 84 0d 35 3d
       -0.047328644 -0.008886533 -0.050384805 0.044202343
000160 56 94 00 bd c1 78 08 bd 5e 3b 1b 3d f0 97 bc bc
       -0.031391464 -0.033318285 0.037898414 -0.023021668
000170 4b 48 9c 3c 83 53 f9 3b 02 4d 0d 3e 95 a9 07 3d
       0.01907744 0.0076088323 0.13798907 0.03312071
000180 f4 52 ad 3c 2a 6a 08 bd 9f 2c 9d 3d de d9 1f 3d
       0.02115772 -0.03330437 0.076745264 0.039026134
000190 54 08 a0 3d 03 d6 2f bc 35 40 b2 3c 0f 2b 2d bc
       0.078140885 -0.010732177 0.021759132 -0.010569348
0001a0 45 3e 69 3d eb 1e 70 bd 8c 41 28 3d 35 45 64 3d
       0.05694415 -0.058623236 0.041078135 0.055730063
0001b0 af 91 36 bd 03 9b 7d bd 34 c5 8c bd a8 c3 83 bb
       -0.04457253 -0.06191541 -0.06873551 -0.004021127
0001c0 25 cc d6 3d b5 c1 db 3a d1 f0 ab 3d e3 08 8f 3d
       0.10488156 0.0016766103 0.083955415 0.06984117
0001d0 e9 b5 86 bd 60 2e ab 3d b1 ab 65 bd f9 bb 6d 3c
       -0.06577665 0.08358455 -0.05607194 0.014510148
0001e0 a2 62 ce 3d d6 05 54 bd 8a cf 16 bd 42 a4 3b 3d
       0.100774065 -0.051763378 -0.03681902 0.045810945
0001f0 8c 5f 61 3c 95 f8 40 bd 57 b6 eb 3c 5f 30 f0 3c
       0.01375569 -0.047112066 0.02877347 0.02931994
000200 52 88 b7 3c ab f5 80 3d 3c f9 0c 3d ac 56 8b 3d
       0.02240387 0.062968574 0.034417376 0.06803641
000210 1c fb af 3d 1a 89 9a bd 2a c4 c7 bb cc 4a 7d 39
       0.08592817 -0.07545681 -0.0060963826 0.00024155824
000220 6c 9c 74 3d c7 c2 27 3d 9c f0 84 bd aa 6e 9f 3d
       0.059719488 0.04095724 -0.06491205 0.07784779
000230 42 14 ab 3d b5 f3 b2 3d 9d ae 42 bc 45 6e 8c 3c
       0.08353473 0.0873789 -0.011882451 0.017142424
000240 ed e6 06 bd 17 ad 97 bc e9 2a 37 bd 21 a5 37 bd
       -0.03293507 -0.018515153 -0.044718657 -0.044835214
000250 26 d1 5d bc 0e 0c bd 3d b6 25 3a 3c 66 c2 ce 3d
       -0.013538634 0.09230815 0.01136153 0.10095672
000260 75 12 9f 3d f4 57 cf 3c 7b 08 18 3d f6 52 59 bc
       0.07767192 0.025310494 0.037117463 -0.013264408
000270 0e 32 3c bd ce ba ea 3c 42 83 e5 bc 89 de 93 bc
       -0.045946173 0.028653529 -0.02801669 -0.018050449
000280 16 30 3d bd 37 e9 b5 3d a9 28 88 bd 01 7b ec 3a
       -0.046188436 0.08882373 -0.0664838 0.0018042029
000290 8e 3e 95 3d b4 fb 0e 3d 86 2b 3d 3d d1 65 8a bd
       0.07287322 0.03490801 0.046184085 -0.06757701
0002a0 58 fa f0 bc b9 47 1c 3d e4 36 f6 3c c8 e4 ab bc
       -0.029416248 0.038154338 0.03005547 -0.020983115
0002b0 54 8e 84 bd b8 4e 21 3b 85 b8 07 3d 3a 5f 7a bd
       -0.064724594 0.002461357 0.033134956 -0.06112597
0002c0 89 d5 69 3d a5 d9 0b bc 96 cf 7d 3c bc a5 17 3c
       0.05708841 -0.008535777 0.015491387 0.009255823
0002d0 35 b8 68 3d 1f 64 62 3b f0 68 8b bd fb 97 80 3d
       0.0568163 0.003454454 -0.068071246 0.06278988
0002e0 a4 3a 88 3d d8 3f 44 bd 98 f3 3e 3c 6b 85 5f bd
       0.0665181 -0.04791245 0.011654757 -0.054570597
0002f0 ee 9f d5 bb b6 96 b4 3c 70 12 8e bd b0 43 85 bc
       -0.0065193092 0.02204452 -0.069371104 -0.016267627
000300 57 98 4f bb 13 c8 bb 3d 54 1b 5e bd 96 6c 6f 3d
       -0.0031676495 0.091690205 -0.05422528 0.058453165
000310 16 0a 14 3c c7 1b b5 3d df 27 8d 3d 91 30 eb bc
       0.009035608 0.08843189 0.068923704 -0.028709682
000320 9c 78 b0 3d d3 81 17 bd a2 28 88 3d a6 4e 1a bd
       0.086167544 -0.036989044 0.06648375 -0.03767266
000330 0f 5e 85 3d 6c 1e 5c bd 07 7f da 3d 93 62 cd 3d
       0.06512081 -0.05373995 0.1066876 0.10028567
000340 dd a3 57 3d 41 c2 e5 3c d4 6d 36 3d 09 32 74 ba
       0.052646507 0.028046729 0.044538334 -0.0009315317
000350 5b 72 54 bd d0 1a 93 bc 9d d3 99 3d 90 88 a7 3c
       -0.05186687 -0.017957121 0.07511065 0.02045086
000360 3a eb c3 3c 76 ad 12 bc 77 88 78 3d 43 29 18 bd
       0.023915876 -0.008952489 0.060677018 -0.037148725
000370 ca 47 e1 3c bb 03 39 3d 21 f7 80 bd 91 1d 4c bc
       0.027500052 0.045169573 -0.06297136 -0.012458221
000380 ff 14 ae 3d 12 f8 00 3c 46 ff dd bc 3a 4c 84 bc
       0.085000984 0.007871645 -0.027099263 -0.016149629
000390 b3 9c ec bc 95 08 11 3d f8 f1 91 3c 29 0a 8a bc
       -0.028883314 0.035408575 0.017815575 -0.016850548
0003a0 57 b2 9f 3d 50 05 9a bb 9c 7c 87 3d 90 fd 7a bc
       0.077976875 -0.0047003403 0.06615564 -0.015319243
0003b0 64 60 4d bc 2e aa ef bc 0d 13 90 bd b2 9f 53 3b
       -0.012535188 -0.029255953 -0.07034884 0.003229123
0003c0 f8 9e 88 3c b1 d5 9a bd 41 33 c4 3b 4a e5 8b bd
       0.016677365 -0.0756029 0.0059875553 -0.06830843
0003d0 6c 3d 51 bd fe 32 72 3d 09 71 44 bd 96 cf 85 3d
       -0.051083967 0.05913066 -0.04795936 0.065337345
0003e0 d9 45 b2 3d a5 eb 6c bd c3 2e ad 3d 57 0c 7e bd
       0.08704729 -0.057841916 0.08456185 -0.062023487
0003f0 d9 57 0c 3d c6 be 1d 3d 37 c3 b5 3d 95 e9 75 3d
       0.034263466 0.038512014 0.08875125 0.060037214

model.4.weight f4 [784, 256]
000000 20 1e 18 3d 0b 1b 74 3c 47 f1 ac 3b dc 97 32 bd
       0.037138104 0.014899026 0.005277786 -0.043601856
000010 54 2d 91 bd a8 4e e3 3c 13 91 5f bd 86 1f 03 3d
       -0.07088724 0.027747467 -0.054581713 0.032012485
000020 a1 91 6e 3b bf 50 51 bd 38 cc 05 bd 42 6d 07 3d
       0.003640272 -0.051102396 -0.03266546 0.03306318
000030 58 c7 6a bd 78 67 f4 39 79 41 13 bc 50 69 87 bd
       -0.057319015 0.00046616397 -0.008987778 -0.06611884
000040 08 ae 49 bd 1e ea 4e 3c ef 5c 9a bd da 07 04 ba
       -0.049238235 0.01262906 -0.07537257 -0.00050365704
000050 16 81 44 bb 59 53 b6 bc 0b d7 59 bd e7 4c 8b bd
       -0.0029984168 -0.02225654 -0.053183597 -0.06801777
000060 99 7a e6 3c d4 13 18 bd 76 c3 68 3c 35 8a 44 bd
       0.028134631 -0.037128285 0.014206758 -0.047983367
000070 48 21 a4 bc 5e f0 ea bc e5 f2 bc 3b c0 e0 61 3c
       -0.020035401 -0.02867907 0.00576626 0.013786495
000080 6d b2 54 bd 64 fc 04 3c 47 4a a3 3c 68 55 2c 3a
       -0.051927973 0.008116815 0.01993288 0.0006574006
000090 3a a9 0a bc 5e c5 28 bc ac d7 c2 bb c6 25 04 bd
       -0.008463198 -0.010300962 -0.0059461202 -0.032262586
0000a0 f7 09 30 bd 36 ea 92 3c d5 95 2f 3d b3 a6 67 bd
       -0.042978253 0.017933946 0.0428675 -0.05655546
0000b0 a3 d6 36 bd e8 ad 64 bd 49 9e 07 bb 20 42 11 3d
       -0.044638287 -0.055829912 -0.002069371 0.035463452
0000c0 a0 d4 86 bd 0c 48 10 bd 08 19 36 bd a1 46 a5 b9
       -0.06583524 -0.03522496 -0.044457465 -0.00031523875
0000d0 f0 d0 27 bd 29 00 23 bd 68 62 36 bd 29 58 85 bd
       -0.040970743 -0.039795075 -0.04452744 -0.06510956
0000e0 ee 28 24 bc c1 ff f7 bc 8c 3f c3 bc a1 74 7a bd
       -0.010019524 -0.03027332 -0.023834012 -0.061146382
0000f0 59 fe 17 3d 05 f0 36 3d 1d 3d db 3a 8c 30 52 bd
       0.0371078 0.044662494 0.0016726587 -0.05131583
000100 e7 4e 49 bc 6c 15 41 3c 53 1a cf bc 74 37 b6 bc
       -0.012286878 0.0117848925 -0.025281107 -0.022243239
000110 a0 3a 9e bd 00 aa 12 bd f9 fa 1a bb 5f 27 2a bd
       -0.077260256 -0.035806656 -0.0023648127 -0.041541453
000120 b1 b5 94 3c 97 74 1a bd ec c1 0e bc 3d bd 82 bb
       0.018153043 -0.037708845 -0.008713227 -0.003989844
000130 d9 68 72 ba da 8b 24 3d 65 6c ce bc 78 cf 06 bc
       -0.0009247191 0.040172435 -0.02519817 -0.008228175
000140 25 4e f2 bb c9 a7 78 bd 96 1e 30 3d b1 37 95 bc
       -0.0073945695 -0.060706887 0.04299792 -0.018215032
000150 b3 26 0a 3c c3 f9 a2 bd 09 63 0d 3d 2c a8 9e bd
       0.008432078 -0.079577945 0.034518275 -0.0774692
000160 b3 67 18 bd 3e 47 89 3c c8 cb 2f bd 97 f6 41 bd
       -0.03720827 0.016757604 -0.04291895 -0.047354307
000170 45 aa 6d bd 4d c6 40 bd d7 6e 9b 3c 4c 03 86 bd
       -0.05802371 -0.047064114 0.018973751 -0.065435976
000180 c1 47 84 bd dd 62 20 bd 4e a4 25 bd e1 ff 96 bc
       -0.064589985 -0.039156783 -0.040439896 -0.01843256
000190 5c 34 bf 3c e9 94 2c 3d de 5a 1b bd 4e fc 4c bd
       0.023340397 0.0421342 -0.037928455 -0.050045304
0001a0 02 d6 89 3c 9b ee 25 3d 1b a9 98 bd 06 f7 db 3c
       0.01682568 0.040510755 -0.07454129 0.026851188
0001b0 18 f3 f3 ba 61 41 87 bb 8b c7 23 bd d1 56 8a bd
       -0.0018611876 -0.004127667 -0.03998522 -0.0675484
0001c0 3d 4e 13 3c 41 4a 89 3c 49 85 91 bd 99 d7 44 bd
       0.008990821 0.01675904 -0.071055 -0.048057172
0001d0 87 f6 a9 bc 7b 5b 41 bd b3 a9 0e 3d 19 ca 85 bd
       -0.020747436 -0.047206383 0.034829807 -0.06532688
0001e0 6d ba 1e bc 3d dc d8 bc ca 83 8b bd 3e 63 1e bd
       -0.009688002 -0.026472205 -0.06812246 -0.038668863
0001f0 40 a6 97 bd b2 f1 5c bd b4 fc 02 3d 97 90 11 bd
       -0.074047565 -0.053941436 0.031979278 -0.035538282
000200 8b 24 c8 3a a6 a7 08 3d fa 3e 2c bd 45 81 07 bc
       0.001526968 0.033363007 -0.042052247 -0.008270566
000210 26 06 87 bc 69 40 9c bd b3 ed 16 bd b0 df 3d bd
       -0.016482424 -0.07629473 -0.03684778 -0.046355903
000220 3c 35 cd 3c b9 a3 d2 3c 53 9c 68 bd aa e4 a4 3b
       0.025049798 0.025712835 -0.056789707 0.0050321417
000230 d9 65 84 bd 38 38 8d bd fe 11 8d 3c 1b fd 08 3d
       -0.064647384 -0.068954885 0.017220493 0.033444505
000240 31 ff 90 bd 52 fb 37 bd 00 ad 87 bd d5 e2 b0 bc
       -0.07079924 -0.044917412 -0.06624794 -0.021592537
000250 1b 90 39 bd be be 56 bd 74 b1 e0 3a 41 3a 21 bd
       -0.045303445 -0.052428 0.0017142729 -0.039362196
000260 bc 33 6f 3c 0e 27 7f bc c8 9c 80 3c 3a 57 5e bb
       0.014599737 -0.015573276 0.01569976 -0.0033926503
000270 3e 8c 08 bd 95 6b ac bd b9 a2 d7 bc 36 82 87 bd
       -0.03333687 -0.08418957 -0.02632271 -0.06616633
000280 30 8a e7 bc 7c 80 b4 bc 95 9c 78 3b 1a 2e a0 bd
       -0.028264135 -0.022033922 0.0037935127 -0.07821293
000290 47 9d a0 3c 65 07 43 bd e6 ba bc bc 0e ff 37 3d
       0.019606246 -0.047614474 -0.023038339 0.044920973
0002a0 fd d0 a9 bb 47 89 1a bd b3 83 86 bd ac 8c 35 bc
       -0.005182384 -0.037728574 -0.065680884 -0.011080902
0002b0 60 95 f6 3c dd bc cc 3c c0 93 15 3d eb 92 c6 3b
       0.030100524 0.0249924 0.03651786 0.0060599945
0002c0 7c 4b 70 ba a1 ce 3f bd 73 b7 f4 3c 0c 65 06 bd
       -0.00091665215 -0.046827916 0.029872632 -0.03281121
0002d0 09 bd 4f 3b ac 08 43 bd 92 b3 a4 3c 49 89 76 bd
       0.0031698367 -0.047615692 0.020105157 -0.06018952
0002e0 e8 80 bf 3c 3d 2f b4 bc 8b 62 09 bd 7c dc 73 bd
       0.023376897 -0.021995181 -0.033541244 -0.059536442
0002f0 55 68 50 bd fa 04 d5 3c 40 46 cd bc b2 0f 08 bd
       -0.05088075 0.02600335 -0.025057912 -0.033218093
000300 69 16 65 3c 89 44 98 bd 57 75 90 3c 75 fc 44 bd
       0.013982394 -0.07434947 0.017634077 -0.048092324
000310 ef 4f ad bd b2 96 88 bd 68 1f fa b9 06 7b 9c bc
       -0.08462512 -0.06669368 -0.00047707115 -0.01910163
000320 0d a5 a3 bd e0 07 03 bc 58 d1 7a 3b 90 51 af b8
       -0.07990465 -0.007997483 0.0038271751 -8.3598425e-05
000330 0b 2a 48 3c 97 84 ed bc bd ec ec 3c 8f 03 7b bd
       0.012217055 -0.028993888 0.02892148 -0.06128269
000340 06 25 4c bc 7c de 92 3b 52 fa 48 bd 58 54 02 bc
       -0.012459999 0.0044820886 -0.04906685 -0.007954679
000350 ee b7 e8 bc 59 ac 25 3d 50 d4 85 bd a5 7b f1 bb
       -0.028408017 0.040447567 -0.06534636 -0.007369476
000360 f5 b4 60 bd 5d bf 69 bd 04 10 00 3d 52 de 84 bd
       -0.054860074 -0.057067264 0.031265274 -0.06487717
000370 df 01 4a bd d8 a0 0b 3d e1 bf 8e bd 3b 1b 75 bd
       -0.04931819 0.03408894 -0.06970192 -0.059840422
000380 bd ca 3b 3d e4 7d 18 bd 8e 7f c2 bb 47 9b c5 bc
       0.045847643 -0.037229434 -0.005935616 -0.024121894
000390 8d e1 c5 3a fa 15 22 bc 49 ef 08 bd 92 bf ee 3b
       0.0015097127 -0.009892935 -0.033431325 0.0072860206
0003a0 8d c3 e3 bb 57 6c 8d bd 7b c5 50 3d fe 99 2a bd
       -0.0069508017 -0.0690543 0.050969582 -0.041650765
0003b0 73 2f d2 3c cb bf 70 bc 3a fb 30 bd c6 ce 73 3c
       0.025657391 -0.0146941645 -0.04320834 0.014880842
0003c0 f4 d6 76 bc 7d a4 05 bd 2a 90 a3 3b 2d 09 c1 3c
       -0.015065897 -0.03262757 0.004991551 0.023563946
0003d0 28 61 5b bd b6 81 e6 b8 a8 8d fc 3c 5b c3 81 3c
       -0.053559452 -0.00010991415 0.030829266 0.015840223
0003e0 66 ab 3d bd 8c bf 1a bd bc ed cd bc 61 17 34 3c
       -0.046306036 -0.03778033 -0.025137775 0.010991902
0003f0 82 e6 a2 b9 08 95 1d bb af 66 c6 bc db ed 0a 3d
       -0.0003107079 -0.0024045128 -0.024218885 0.033918243

model.4.bias f4 [784]
000000 13 40 35 3c ca de 4a 3d 66 fb 3e 3d af c0 67 bd
       0.01106264 0.049528874 0.04662647 -0.05658024
000010 cd 2e 1f bd 09 a2 82 3c 88 01 58 bc 9a 39 42 bc
       -0.038862992 0.015946405 -0.013183959 -0.011854554
000020 c7 e3 9b bb 61 96 14 3d 5a bf d1 bc d8 00 14 3d
       -0.004757378 0.036276225 -0.025603939 0.036133617
000030 65 27 b4 3b 93 f2 8b bd 1b cd 8c bd cd e7 70 bc
       0.0054978603 -0.06833377 -0.06875058 -0.014703703
000040 8a 1f 06 3d 27 b5 93 bc 9c 93 3f bd d7 6c 0b bd
       0.03274492 -0.018030716 -0.04677163 -0.034039345
000050 26 84 85 3b 80 d6 b0 bc f6 d4 91 3c bd ce f1 3c
       0.004074591 -0.021586657 0.017801743 0.029517526
000060 38 ba 84 bd f9 4d 8a bd 73 00 ab ba 11 48 b1 bc
       -0.06480831 -0.06753153 -0.0013046399 -0.02164081
000070 05 39 1e 3d a1 fb fc 3c 4f 75 21 bd b3 53 07 3c
       0.038628597 0.030881705 -0.039418515 0.008259702
000080 f2 40 1a bd a6 a5 23 3d 40 da a4 3c 58 77 92 bd
       -0.037659593 0.039952897 0.020123601 -0.07151669
000090 6d 08 84 bd f0 6d c5 bc c1 47 ac bb 90 32 d9 3c
       -0.064469196 -0.024100274 -0.005257577 0.026513368
0000a0 7a 9d 66 bd cb ea 82 bd b7 c8 b2 3c 09 37 b2 3b
       -0.056302525 -0.063924395 0.021824224 0.0054386896
0000b0 b9 8b 41 bb ef be 1f 3d be 62 7f 3c 62 3a c2 3c
       -0.0029532744 0.039000448 0.015587507 0.02370948
0000c0 54 64 79 bd 0d ca 06 bd 33 16 9c bc 22 4b 15 3c
       -0.060886696 -0.032907534 -0.019053554 0.009112151
0000d0 db 53 d1 bb 9b c4 10 3d 19 c5 81 bd ac e0 55 bc
       -0.00638817 0.035343748 -0.063364215 -0.013054054
0000e0 40 6b 09 3d 72 fe a5 3c ec 33 c5 3c b6 d5 93 bd
       0.033549547 0.02026293 0.02407261 -0.072184965
0000f0 86 27 34 bd 2a 16 2b bd 0b 40 66 bd 81 ef 0c bd
       -0.043983005 -0.041769184 -0.05621342 -0.034408096
000100 70 cd 93 bd 7e ea f4 3a 98 ed 5e bd b4 fc c3 bb
       -0.072169185 0.0018685607 -0.054425806 -0.0059810523
000110 82 82 0f bd f6 38 a0 bc 06 f4 4e bd 19 f6 a6 39
       -0.03503657 -0.019558411 -0.050525688 0.00031845344
000120 67 65 2c bc 41 ce 56 3d 29 a2 f2 3c 2b a7 0b bd
       -0.010522223 0.052442793 0.02961834 -0.03409497
000130 23 a5 05 bd 67 dd 84 3a cc 64 08 36 0b 21 0b 3d
       -0.03262819 0.0010136784 2.032425e-06 0.03396706
000140 0b 09 3c bd 34 21 91 bd 2d d5 93 bd ce 3f 4e 3d
       -0.04590706 -0.07086411 -0.072183944 0.050353818
000150 60 bb 08 bd 67 20 13 3c 41 b9 23 3d 70 86 59 bd
       -0.03338182 0.008979893 0.039971594 -0.053106725
000160 a9 9f f4 3b ff 84 ed bc d2 cf 7c bd c3 9e 7e bd
       0.007465322 -0.028994082 -0.06172163 -0.062163126
000170 e0 9b 17 3d c6 b6 97 3c 14 5a a4 3c 04 8a 7e bc
       0.03701389 0.01851977 0.020062484 -0.015535835
000180 35 d5 11 3c 33 5b 77 bd 58 75 61 3c 70 f9 bc bb
       0.00890093 -0.06038971 0.013760887 -0.00576704
000190 e0 fb 88 bd 1e b7 db bb 0f f0 f2 bc 1f f6 de 3c
       -0.06688666 -0.006705179 -0.029655484 0.027216969
0001a0 14 83 db bb 9d 37 7b bd 3a ae 91 3c a8 46 8a bd
       -0.0066989753 -0.061332334 0.017783273 -0.06751758
0001b0 b3 2e 4d bd 8d e5 8f 3b c3 08 2a bc aa 87 33 bd
       -0.050093364 0.0043913783 -0.0103780655 -0.04383055
0001c0 84 28 87 bd 0b eb 0f 3d 52 ae 57 bd bd 3e db 3c
       -0.065995246 0.035136264 -0.05265648 0.026763314
0001d0 b6 65 a8 3c 36 5f db bb 25 15 61 3a be 1a 9d 3c
       0.020556312 -0.0066946996 0.00085862196 0.01917779
0001e0 10 d0 09 bd 54 bd ff 3c a3 35 91 bd f9 9a 34 3d
       -0.03364569 0.031218208 -0.070903085 0.044093106
0001f0 3f 5c 1a bd fb f9 4e 3d 67 72 d4 3c f1 d9 1f 3a
       -0.03768563 0.05053137 0.025933458 0.00060978445
000200 cf e7 4f 3c a1 92 c0 3b 8b c5 24 3d e1 e7 c7 bc
       0.012689545 0.0058768545 0.040227454 -0.02440256
000210 7a 45 74 bc 34 c0 4d bd cf 99 5b 3c 63 0f a5 bc
       -0.014909143 -0.050232127 0.01340337 -0.020148939
000220 bf 04 2b 3d 2c 57 52 3d 9f 63 04 3d 44 74 63 3c
       0.041752573 0.051352665 0.03232157 0.0138827
000230 4b d2 a2 3c b3 d2 fc 3b 69 de f3 3c 64 a9 35 bc
       0.019875666 0.007715547 0.02976914 -0.011087749
000240 10 85 77 bc 3d c0 47 bd 1e 71 2d bd 09 1a 46 bd
       -0.015107408 -0.048767317 -0.042344205 -0.048364673
000250 48 32 bb bc 9d 13 3c bd c0 04 1c 3d 03 46 fa 3c
       -0.022851124 -0.045917142 0.038090467 0.030550962
000260 51 61 32 bd 6e 90 48 3d 07 a5 ee bc 15 97 5c bb
       -0.04354984 0.048965864 -0.029131426 -0.0033659388
000270 a4 58 52 bd e1 8a b3 3c cb 8a a6 bb f6 69 cc bc
       -0.051354066 0.021916809 -0.0050824634 -0.02495287
000280 0d b0 0c 3d e1 73 f6 bc af 13 28 3a 6a 0d 48 3d
       0.034347583 -0.030084552 0.00064116245 0.048840918
000290 29 a1 4a bd 2e 16 00 bd 0d 68 cd bc 1f 58 f0 bc
       -0.0494701 -0.031271152 -0.02507403 -0.029338894
0002a0 f9 64 44 bd 0a 02 de 3c f3 19 3e bc e3 fe d9 bc
       -0.047947858 0.027100582 -0.011602866 -0.026610797
0002b0 38 a7 91 bd b1 ba f8 bc 6b 2c 9b bc 0a 12 d7 3c
       -0.071119726 -0.030362459 -0.018942079 0.026253719
0002c0 1e 65 af 3c f4 29 0f bc 2b ce c3 ba ba a5 53 3d
       0.021410521 -0.00873803 -0.0014938762 0.05167172
0002d0 57 11 00 bd 9d cf 3a bc d2 89 1f 3d b1 91 3c 3c
       -0.031266537 -0.011402038 0.038949795 0.011509345
0002e0 c0 7b 65 bd 34 3a ed 3c cc c0 d4 3c 49 ae 39 3d
       -0.05602622 0.028958417 0.025970839 0.045332227
0002f0 c0 65 e5 3c 2f 5d 72 bc 72 a0 28 bd 9c 69 36 bc
       0.02800262 -0.0147927245 -0.041168638 -0.011133578
000300 48 98 a9 3c 4f 47 0e 3d 9d b8 8e bd 61 86 f2 bc
       0.020702496 0.034735974 -0.06968806 -0.029605092
000310 33 b2 ac 3b cb f8 da bc ea 2a 28 bc fe 7e ec 3a
       0.0052702664 -0.026729962 -0.010264138 0.0018043218
000320 84 3b 85 bd 25 9b 19 3d a7 0d 40 3d 76 62 3c 3c
       -0.06505492 0.037501473 0.04688802 0.011498084
000330 b1 cd 90 bd 96 0c 8a bc 4f 8d 3e 3d 60 70 fb 3c
       -0.070704825 -0.016851705 0.04652148 0.030693233
000340 7e 5b 4d 3d 67 b7 d5 bc 75 9f 13 3d dc ac 52 3d
       0.050136082 -0.02608843 0.036040742 0.051434383
000350 f1 74 b9 bc dd d1 14 bd b0 4f a9 3c 72 33 6f bd
       -0.02263877 -0.036332954 0.02066788 -0.05839867
000360 77 37 36 bd 7d 84 56 3d 6f 31 87 bd 38 65 83 3c
       -0.04448649 0.052372444 -0.066012256 0.016039476
000370 c9 ff 50 3d 53 98 89 bc 91 4b 66 3a eb 61 01 bd
       0.051025186 -0.016796267 0.0008785064 -0.031587522
000380 34 50 26 bd e4 71 3a bd 9a 96 2d 3d 02 0b 19 bd
       -0.04060383 -0.04551877 0.042379953 -0.037364013
000390 5f 3f 21 bd 6b 96 48 bd 78 4d 4c bc ea 41 79 bc
       -0.039367076 -0.048971575 -0.012469642 -0.015213469
0003a0 b9 0c 09 3c 78 cf 59 bb 0f 8b 82 bd 69 bc e1 bc
       0.00836485 -0.0033235233 -0.063741796 -0.027555661
0003b0 ae a5 24 bd 60 3d 56 3d dd 12 35 bb 1c 47 24 3d
       -0.040197067 0.052304626 -0.0027629652 0.040106878
0003c0 ad 0e 2c 3d ed 95 d7 3a b0 63 59 3c c2 69 3d bb
       0.042006183 0.001644788 0.013268396 -0.0028902148
0003d0 77 4b fd 3c 05 b5 29 bc 70 0b 1a 3c 53 56 1e 3d
       0.030919774 -0.0103581 0.009402141 0.038656544
0003e0 8a 5b 2f bd e3 b6 aa 3c 3b 2f dd bc ec e6 54 bc
       -0.042811908 0.02083916 -0.02700006 -0.012994509
0003f0 52 b2 9f bc 9e bf 1b 3d b0 07 c7 bc df df 90 3b
       -0.01949421 0.038024537 -0.024295658 0.0044212188
